nnunetv2/training/network/model/dim2/netron/MBConv.pt (torch, 41555 bytes, 20 tensors)

weight f4 [12, 3, 1, 1]
0.4600419 0.09631869 0.01465839 -0.017138379 -0.4610983 0.40007114 0.31318292 0.22823153
0.11722382 0.19206296 -0.48160407 -0.4869818 -0.058091555 -0.18114008 -0.39312336 0.0545648
0.4671469 -0.41792607 -0.4710995 0.46006608 0.3036521 0.038917523 -0.059469443 -0.39186323
-0.23059218 0.5687038 -0.307612 0.10145666 0.35176402 -0.4530125 0.22412561 -0.4722296
0.29395336 0.5759566 -0.07582803 0.50760823
00000000: 9d8a eb3e bc42 c53d be29 703c c965 8cbc
00000010: 1415 ecbe 20d6 cc3e 8359 a03e 87b5 693e
00000020: 0b13 f03d 27ac 443e cf94 f6be ae55 f9be
00000030: 69f1 6dbd c97c 39be 7747 c9be 577f 5f3d
00000040: e12d ef3e 68fa d5be f433 f1be c88d eb3e
00000050: 4a78 9b3e fb67 1f3d 3b96 73bd 4ca2 c8be
00000060: 5b20 6cbe 9296 113f 527f 9dbe 82c8 cf3d
00000070: 6a1a b43e 41f1 e7be 2f81 653e 14c8 f1be
00000080: 0e81 963e e471 133f ba4b 9bbd 9df2 013f

weight f4 [3]
1.0 1.0 1.0
00000000: 0000 803f 0000 803f 0000 803f

bias f4 [3]
0.0 0.0 0.0
00000000: 0000 0000 0000 0000 0000 0000

running_mean f4 [3]
0.0007329038 -0.0008559208 -0.0009501595
00000000: 5720 403a df5f 60ba 2014 79ba

running_var f4 [3]
1.0024916 0.99821085 0.99848104
00000000: a551 803f bf8a 7f3f 749c 7f3f

weight f4 [12, 1, 3, 3]
-0.10788596 0.088757716 0.28594345 0.1922524 0.06521448 0.17638314 0.31190702 0.077008486
-0.054151297 0.32520732 0.2664623 -0.053068005 -0.037985086 0.27354157 -0.018227976 0.2788623
0.26197177 0.111349344 0.3289222 -0.21932733 -0.008903861 -0.16207251 -0.027064562 -0.19641304
-0.08887573 0.18444535 0.12615034 -0.20775017 0.04812658 -0.16145524 -0.272572 -0.19682555
-0.33323798 -0.2037296 -0.12813208 -0.006145398 0.075262114 -0.019995134 -0.1944786 -0.21015644
0.18308525 0.056969166 0.16274488 0.32355165 -0.17946672 0.07939367 0.20894913 -0.22114372
-0.12476885 -0.015631517 0.00011960666 -0.0152106285 0.052333236 -0.12746224 0.0020594995 0.17991368
0.28948507 -0.3195454 -0.026690166 0.03448069 0.17087564 -0.16299216 -0.11878908 -0.02398634
-0.18019037 -0.2142797 0.3097177 -0.2874746 -0.26245403 -0.23709282 0.25546306 0.044125002
0.07834113 0.017985702 0.083764 -0.22629127 -0.22233781 -0.11046593 0.22661075 0.23459935
0.16022794 0.041567326 0.25586253 0.30297312 -0.08328931 -0.2865312 0.19373736 0.14394078
0.005195459 0.30149865 -0.22340815 -0.23974404 0.333325 -0.06629821 -0.1846302 0.17106447
-0.22583365 -0.28430915 -0.056455255 -0.20806634 0.13357756 -0.15888306 -0.23258269 -0.02583341
-0.23412669 0.043060027 0.038046956 -0.1052804
00000000: 50f3 dcbd 9bc6 b53d 2e67 923e d0dd 443e
00000010: 2b8f 853d c89d 343e 47b2 9f3e a0b6 9d3d
00000020: c0cd 5dbd 9381 a63e bf6d 883e d65d 59bd
00000030: 4096 1bbd a40d 8c3e d652 95bc 0ac7 8e3e
00000040: 2a21 863e 200b e43d 7e68 a83e 5897 60be
00000050: 80e1 11bc 56f6 25be 80b6 ddbc 8020 49be
00000060: 7b04 b6bd 3edf 3c3e 8e2d 013e 76bc 54be
00000070: 6020 453d 8654 25be 8f8e 8bbe a38c 49be
00000080: 2b9e aabe 7e9e 50be 0e35 03be 565f c9bb
00000090: 0623 9a3d d6cc a3bc 6625 47be 4033 57be
000000a0: b37a 3b3e 8058 693d 98a6 263e 90a8 a53e
000000b0: 20c6 37be 2699 a23d c3f6 553e 8073 62be
000000c0: d086 ffbd ab0d 80bc 56d5 fa38 0036 79bc
000000d0: 605b 563d 7685 02be abf8 063b 4b3b 383e
000000e0: 6337 943e 749b a3be 56a5 dabc a03b 0d3d
000000f0: 06fa 2e3e 6be7 26be b047 f3bd 007f c4bc
00000100: d383 38be 236c 5bbe 5293 9e3e df2f 93be
00000110: 6060 86be 76c8 72be 0ecc 823e 6bbc 343d
00000120: 5071 a03d c056 933c 768c ab3d e6b8 67be
00000130: 86ac 63be f63b e2bd a60c 683e d03a 703e
00000140: cb12 243e 8042 2a3d 6a00 833e 4b1f 9b3e
00000150: 9693 aabd 38b4 92be 1663 463e 3665 133e
00000160: ab3e aa3b 085e 9a3e 1bc5 64be 767f 75be
00000170: 93a9 aa3e 5bc7 87bd b30f 3dbe 862b 2f3e
00000180: f040 67be f890 91be a03d 67bd 580f 55be
00000190: 8ec8 083e 3eb2 22be 282a 6ebe 96a0 d3bc
000001a0: e8be 6fbe b65f 303d 20d7 1b3d 409d d7bd

weight f4 [12]
1.0 1.0 1.0 1.0 1.0 1.0 1.0 1.0
1.0 1.0 1.0 1.0
00000000: 0000 803f 0000 803f 0000 803f 0000 803f
00000010: 0000 803f 0000 803f 0000 803f 0000 803f
00000020: 0000 803f 0000 803f 0000 803f 0000 803f

bias f4 [12]
0.0 0.0 0.0 0.0 0.0 0.0 0.0 0.0
0.0 0.0 0.0 0.0
00000000: 0000 0000 0000 0000 0000 0000 0000 0000
00000010: 0000 0000 0000 0000 0000 0000 0000 0000
00000020: 0000 0000 0000 0000 0000 0000 0000 0000

running_mean f4 [12]
0.09326716 -0.01263077 0.10757406 -0.1268454 -0.103330374 0.016812306 0.047770992 -0.067421444
0.0048401468 -9.399396e-05 0.0076138824 0.16471289
00000000: da02 bf3d 4af1 4ebc ca4f dc3d c3e3 01be
00000010: e09e d3bd f6b9 893c 84ab 433d 4114 8abd
00000020: 189a 9e3b 9f1e c5b8 e07d f93b 7faa 283e

running_var f4 [12]
0.6213279 0.6423052 0.6134466 0.6613003 0.61724776 0.6454754 0.66378826 0.61265254
0.65605974 0.6375992 0.64053696 0.6737678
00000000: 580f 1f3f 1d6e 243f d60a 1d3f fa4a 293f
00000010: f303 1e3f e03d 253f 07ee 293f ccd6 1c3f
00000020: 88f3 273f b339 233f 3bfa 233f 0c7c 2c3f

weight f4 [3, 12, 1, 1]
-0.25294578 0.019377548 0.2011555 0.10032248 -0.15441936 0.26879922 0.10272205 -0.17487948
0.10850428 0.076961584 0.15290895 -0.10001266 -0.2625901 0.25719586 0.12409705 -0.14695466
-0.18650748 0.14328316 -0.26941645 -0.2711223 0.24209663 0.07245262 -0.17126007 -0.06790301
0.15300332 -0.104892045 -0.056996576 -0.24607383 0.059770897 0.048135083 0.03545615 -0.006826252
-0.2006264 0.19636129 0.00216852 -0.0360379
00000000: 1c82 81be aabd 9e3c b5fb 4d3e df75 cd3d
00000010: 1c20 1ebe 0da0 893e f05f d23d 9b13 33be
00000020: 7e37 de3d 099e 9d3d 2a94 1c3e 70d3 ccbd
00000030: 3672 86be 2daf 833e 9826 fe3d 487b 16be
00000040: d1fb 3ebe d2b8 123e f4f0 89be 8bd0 8abe
00000050: 2ee8 773e 0a62 943d cd5e 2fbe bc10 8bbd
00000060: e7ac 1c3e a4d1 d6bd 3e75 69bd c7fa 7bbe
00000070: 54d2 743d 4b29 453d 783a 113d c1ae dfbb
00000080: 0271 4dbe ef12 493e ba1d 0e3b 7a9c 13bd

bias f4 [3]
-0.1674936 0.033276346 -0.25507033
00000000: 7183 2bbe c74c 083d 9498 82be

weight f4 [12, 3, 1, 1]
-0.51770276 -0.5710852 -0.14068672 -0.3059442 -0.016388113 0.25777006 -0.1826839 -0.24697313
0.080213524 0.5543531 -0.43384314 -0.3671021 0.35848162 -0.3131303 -0.4050935 0.0476415
0.4251542 -0.19138104 0.09059385 -0.08728383 0.0055143004 0.5143063 -0.3402599 0.26307893
0.5040917 -0.0783001 -0.39269575 -0.14552934 -0.43326005 -0.40845698 0.16219655 -0.4224051
-0.19701111 -0.23895083 -0.5242915 0.10948591
00000000: 2b88 04bf a432 12bf 2e10 10be b8a4 9cbe
00000010: 5d40 86bc 70fa 833e 7d11 3bbe 86e6 7cbe
00000020: fd46 a43d 16ea 0d3f b020 debe cef4 bbbe
00000030: e78a b73e 9d52 a0be 6a68 cfbe bc23 433d
00000040: d0ad d93e 64f9 43be 4589 b93d ddc1 b2bd
00000050: 4eb1 b43b 94a9 033f 8c36 aebe 48b2 863e
00000060: 270c 013f ce5b a0bd 6b0f c9be a505 15be
00000070: 43d4 ddbe 4621 d1be da16 263e 7b45 d8be
00000080: 48bd 49be 87af 74be f837 06bf 263a e03d

bias f4 [12]
-0.43210304 -0.08838015 -0.49106723 -0.31783408 0.47084484 0.15905969 0.2124391 -0.17682514
-0.48609507 0.5527543 -0.24936365 -0.19080195
00000000: 9c3c ddbe a700 b5bd 2a6d fbbe 26bb a2be
00000010: 9312 f13e 8be0 223e a389 593e a611 35be
00000020: 74e1 f8be 4e81 0d3f 2f59 7fbe 9661 43be

weight f4 [32, 12, 1, 1]
0.109329745 -0.027131293 -0.038508907 -0.14200313 -0.023874229 0.13308232 0.12629764 -0.19911472
-0.09632265 -0.03708773 0.26688588 -0.11946953 -0.08814033 0.10323063 0.06341008 -0.05340674
0.035585783 -0.21839619 -0.1851115 -0.1770994 0.006032453 -0.23367997 0.22455174 -0.2342899
0.09531415 -0.028652646 -0.12462315 -0.01975096 0.11248061 -0.0128898835 0.030834036 0.18492217
-0.08357204 -0.23809874 -0.2233166 -0.024361754 0.04889134 -0.22856575 -0.06569853 -0.12679869
0.24646437 0.13616481 -0.14172205 0.0027372595 0.13930133 -0.106461786 0.1309638 0.16608192
0.1228331 -0.16666429 0.26654097 -0.21764737 0.016692664 -0.07119218 -0.0791341 -0.18256167
0.15751487 0.12350012 -0.19710533 -0.04181604 0.21371995 -0.0016654053 -0.0719971 0.20573346
0.07170789 0.04745939 0.20034346 0.19353999 0.020502089 0.2567305 -0.1481888 -0.19892101
-0.107182555 0.16150784 -0.26011637 -0.07532305 -0.22435181 -0.08565649 0.19741267 -0.09503888
0.009606149 -0.20915365 0.27062693 0.28464 -0.18405512 -0.088110976 -0.06703502 -0.22827727
0.0055358084 -0.10248226 -0.22493427 0.23742802 -0.18770401 -0.022519777 -0.17704645 0.20055962
-0.24933316 -0.01606102 -0.02693046 0.1623371 -0.092029385 0.15438044 0.14186762 0.23097031
0.046251573 -0.070195764 -0.08922068 -0.07399596 0.16053551 0.058953766 -0.1536827 -0.12709357
-0.04395046 0.11108655 -0.12689325 -0.030117529 0.27207172 -0.20889463 -0.02018346 0.18789795
-0.26537132 -0.0042060646 0.09905623 -0.2651241 -0.11180843 -0.07082221 0.12853289 -0.16660592
0.13021488 -0.19191688 -0.0770194 0.23632208 -0.27710292 -0.009279675 -0.14202902 -0.020039752
-0.029464994 0.20348673 -0.019803785 -0.1272559 0.22451368 -0.024544142 0.017323691 -0.26349986
0.19580422 0.10727609 -0.19462499 0.21215926 0.21023352 -0.08130018 0.11293303 -0.23658285
0.2538167 -0.20389387 -0.026883004 -0.022891847 0.27904347 0.099697575 0.15853052 0.07025165
-0.068878375 -0.12482529 0.030829906 -0.008645586 -0.19390827 0.035130333 -0.23430806 -0.046555746
0.27108377 -0.119888194 -0.19530568 -0.093248285 0.20435041 -0.19521019 0.18269554 -0.27605325
-0.19877283 0.17404568 -0.18067375 -0.018513856 -0.004011495 -0.09426091 0.23973034 -0.24710453
-0.091926865 -0.18830226 -0.21968105 -0.09919739 0.2647317 -0.0007007814 -0.034607843 0.19099864
0.0274365 -0.27266786 0.057686966 0.107604906 0.2489719 -0.08670786 -0.19306456 0.26235086
0.044016015 0.20348002 -0.23899375 -0.20741229 -0.01679408 -0.09965893 -0.08087755 0.11907657
0.13637356 -0.18222395 -0.22347355 -0.24462332 -0.21719784 0.07499514 0.26483348 0.03712985
0.11965346 -0.2425001 0.15389977 0.028121829 -0.26889753 -0.10936457 0.18466921 0.20954998
-0.19594008 -0.07340833 0.08701572 -0.26278204 0.2681009 -0.058331482 0.23092481 0.09783867
-0.0456106 -0.11258636 0.102687806 0.1796943 -0.1610761 0.08321156 -0.18668672 -0.10585357
-0.27556387 -0.19071406 -0.26794657 -0.16290745 0.106890015 -0.07858714 -0.25504532 -0.1953878
0.18353999 0.13875833 0.11371131 -0.28588653 -0.15411368 0.17672238 0.09495426 -0.07807959
00000000: 46e8 df3d 7242 debc 84bb 1dbd 4569 11be
00000010: e393 c3bc bb46 083e 2b54 013e bbe4 4bbe
00000020: cf44 c5bd 4ee9 17bd 44a5 883e 71ac f4bd
00000030: eb82 b4bd 956a d33d 25dd 813d 07c1 5abd
00000040: 66c2 113d 40a3 5fbe de8d 3dbe 8c59 35be
00000050: e2ab c53b cd49 6fbe e4f0 653e b1e9 6fbe
00000060: 1134 c33d f4b8 eabc 6c3a ffbd c4cc a1bc
00000070: 3c5c e63d 1730 53bc a997 fc3c 3d5c 3d3e
00000080: d127 abbd 28d0 73be 1bad 64be 4d92 c7bc
00000090: 4942 483d 240d 6abe f38c 86bd 84d7 01be
000000a0: 2861 7c3e ca6e 0b3e 961f 11be 9863 333b
000000b0: 02a5 0e3e a308 dabd 601b 063e 6111 2a3e
000000c0: ec8f fb3d 0baa 2abe 0f78 883e f4de 5ebe
000000d0: 0ebf 883c 35cd 91bd 0f11 a2bd 72f1 3abe
000000e0: 944b 213e a2ed fc3d fbd5 49be 4c47 2bbd
000000f0: 67d9 5a3e bb49 daba 3773 93bd cbab 523e
00000100: 96db 923d c764 423d d626 4d3e 592f 463e
00000110: fff3 a73c 2e72 833e cebe 17be f3b1 4bbe
00000120: 8782 dbbd 5062 253e f92d 85be f942 9abd
00000130: 7bbc 65be ab6c afbd 8c26 4a3e bfa3 c2bd
00000140: 1c63 1d3c 602c 56be 9d8f 8a3e 56bc 913e
00000150: f278 3cbe 8773 b4bd a849 89bd 84c1 69be
00000160: ba65 b53b 38e2 d1bd 2b55 66be 5520 733e
00000170: 7b35 40be 657b b8bc aa4b 35be 805f 4d3e
00000180: 3151 7fbe 6692 83bc 459d dcbc b23b 263e
00000190: e779 bcbd e815 1e3e bf45 113e 7b83 6c3e
000001a0: 4a72 3d3d ccc2 8fbd 55b9 b6bd 328b 97bd
000001b0: 6c63 243e 8179 713d ff5e 1dbe d124 02be
000001c0: 6605 34bd 5881 e33d 4ef0 01be 09b9 f6bc
000001d0: fc4c 8b3e 79e8 55be c957 a5bc 5268 403e
000001e0: c0de 87be 07d3 89bb fedd ca3d 59be 87be
000001f0: d1fb e4bd 3c0b 91bd 209e 033e be9a 2abe
00000200: 0d57 053e dc85 44be 59bc 9dbd 6afe 713e
00000210: 6fe0 8dbe c709 18bc 0e70 11be 682a a4bc
00000220: 9260 f1bc d35e 503e 8c3b a2bc 5f4f 02be
00000230: eae6 653e cc10 c9bc 6aea 8d3c 74e9 86be
00000240: e780 483e 91b3 db3d c64b 47be 4740 593e
00000250: 7547 573e b580 a6bd 6f49 e73d c642 72be
00000260: 43f4 813e 8ec9 50be bf39 dcbc af87 bbbc
00000270: c9de 8e3e 3e2e cc3d d355 223e 19e0 8f3d
00000280: 1b10 8dbd 67a4 ffbd 008f fc3c 37a6 0dbc
00000290: e48f 46be d3e4 0f3d 74ee 6fbe 3db1 3ebd
000002a0: 7ecb 8a3e f187 f5bd 36fe 47be f5f8 bebd
000002b0: 3c41 513e 2ee5 47be 8a14 3b3e da56 8dbe
000002c0: 1b8b 4bbe 0839 323e 8a02 39be 5faa 97bc
000002d0: dc72 83bb dd0b c1bd df7b 753e f808 7dbe
000002e0: 2744 bcbd 4fd2 40be 12f4 60be 0028 cbbd
000002f0: ea8a 873e a5b4 37ba f4c0 0dbd 2695 433e
00000300: 83c2 e03c 1f9b 8bbe 2b49 6c3d f65f dc3d
00000310: 7df2 7e3e e493 b1bd b7b2 45be da52 863e
00000320: 234a 343d 115d 503e c7ba 74be e363 54be
00000330: bd93 89bc fb19 ccbd 21a3 a5bd 6bde f33d
00000340: 83a5 0b3e ea98 3abe 40d6 64be 897e 7abe
00000350: 1c69 5ebe 0d97 993d 4198 873e 7815 183d
00000360: e00c f53d f251 78be e797 1d3e c05f e63c
00000370: f0ac 89be 88fa dfbd ed19 3d3e 4594 563e
00000380: 84a4 48be 1b57 96bd 4c35 b23d 5e8b 86be
00000390: 8544 893e feec 6ebd 8e77 6c3e a45f c83d
000003a0: 2ed2 3abd ad93 e6bd fc4d d23d c801 383e
000003b0: 22f1 24be d36a aa3d ce2a 3fbe c2c9 d8bd
000003c0: b516 8dbe 8c4a 43be 4b30 89be 36d1 26be
000003d0: 27e9 da3d 4bf2 a0bd 4d95 82be bd13 48be
000003e0: e8f1 3b3e aa16 0e3e 7ae1 e83d b85f 92be
000003f0: facf 1dbe b6f6 343e 6177 c23d 31e8 9fbd

weight f4 [12]
1.0 1.0 1.0 1.0 1.0 1.0 1.0 1.0
1.0 1.0 1.0 1.0
00000000: 0000 803f 0000 803f 0000 803f 0000 803f
00000010: 0000 803f 0000 803f 0000 803f 0000 803f
00000020: 0000 803f 0000 803f 0000 803f 0000 803f

bias f4 [12]
0.0 0.0 0.0 0.0 0.0 0.0 0.0 0.0
0.0 0.0 0.0 0.0
00000000: 0000 0000 0000 0000 0000 0000 0000 0000
00000010: 0000 0000 0000 0000 0000 0000 0000 0000
00000020: 0000 0000 0000 0000 0000 0000 0000 0000

running_mean f4 [12]
0.058862425 0.09581875 -0.0038240494 -0.09310637 0.019030856 -0.013317713 0.003962039 -0.04125248
0.0133428 0.076348364 -0.047135938 -0.05113375
00000000: ba19 713d 9f3c c43d e79c 7abb 8dae bebd
00000010: 99e6 9b3c 8932 5abc fed3 813b 5cf8 28bd
00000020: c29b 5a3c 885c 9c3d 9d11 41bd 9f71 51bd

running_var f4 [12]
0.59876955 0.6036833 0.5979462 0.59488183 0.5970263 0.5976753 0.6038178 0.5944851
0.59744394 0.6093229 0.5990046 0.5978648
00000000: f648 193f fd8a 1a3f 0113 193f 2d4a 183f
00000010: b7d6 183f 4001 193f ce93 1a3f 2d30 183f
00000020: 16f2 183f 96fc 1b3f 5e58 193f ab0d 193f

weight f4 [32, 3, 3, 3]
-0.058235265 0.111986615 -0.13890232 0.1444999 0.09337519 0.14482284 -0.029551199 0.11625428
0.18832561 -0.16762558 -0.05527595 0.02755145 0.17318028 0.008942155 -0.003886118 0.010445052
-0.017119935 -0.1646767 0.014685874 -0.16082539 0.046422374 -0.041657697 -0.17584683 -0.10006441
-0.13223651 0.12978436 -0.03825556 -0.1720012 -0.055489905 0.089923844 0.00064406916 -0.16768949
0.009926406 -0.17944787 0.0025508343 -0.09872254 -0.059663806 -0.081368804 0.11981561 -0.13907044
0.12775993 0.18576032 0.04222521 0.18626605 0.11381453 0.1917817 0.1342788 -0.09809207
0.107593164 0.12662101 -0.06793572 0.1908798 0.01816927 -0.06696764 -0.09657181 0.098219745
-0.055328395 -0.16568093 0.05828404 -0.020658873 -0.14040849 0.005317597 -0.08244138 0.0444017
0.11764366 0.10734285 0.016133893 0.03890807 0.049935505 -0.17311646 0.14054285 0.17912585
-0.18671969 -0.18015037 -0.14231671 -0.16941875 0.1747624 -0.099237055 0.13649711 0.030861154
0.035848986 0.02315373 0.052747417 -0.045025837 -0.18658505 -0.0057942136 -0.14381494 0.064360596
0.007305278 0.1286409 -0.06584957 0.031743657 0.0946079 -0.016545286 -0.19093494 0.115035884
-0.10301856 0.09825152 0.044464517 -0.048323862 0.16649406 -0.11486917 -0.17198499 -0.065688886
-0.12555504 0.15706944 -0.18416 0.05307842 -0.12924506 0.07379841 -0.16939318 -0.1888391
-0.07225624 -0.12658551 0.10186376 0.000534866 0.11848831 0.11095215 -0.004101496 -0.1767102
-0.16215147 -0.1447171 -0.041479327 0.13923848 -0.16779739 0.0012190146 -0.04742243 -0.06570102
0.010396622 -0.0831189 -0.16893966 0.18256816 -0.19027871 -0.11976578 -0.06044736 -0.13610698
0.12853229 0.022392083 -0.01988204 0.11276086 -0.063063465 -0.021823676 0.17490195 -0.15653463
-0.057328258 0.107536405 -0.12047383 0.10263598 -0.058676094 -0.17039594 -0.11548094 0.13728295
0.1905358 0.10359268 -0.12401119 -0.069723755 -0.06504867 0.025575815 -0.015141683 0.02471022
-0.036461946 0.16353215 0.12460741 -0.09113584 0.07263235 -0.17680864 -0.12258272 -0.050996795
0.11930495 -0.1764274 -0.056646015 -0.1804733 -0.10239929 0.049866106 0.13695788 0.062097386
-0.089195736 0.012371157 0.1523782 -0.038149685 -0.006169772 -0.017404435 -0.14110446 -0.049227864
0.054830376 -0.10765217 0.1404204 -0.15488306 0.028949343 -0.07483272 -0.15049703 -0.04297263
0.18345661 0.11006326 0.062838845 0.09938907 0.09397776 0.015829869 -0.009686893 0.12704036
0.18188079 -0.03506435 0.059724536 0.18979959 -0.14016 -0.17250377 0.15076973 0.092748344
-0.12088502 -0.065144934 -0.019909639 -0.11813556 -0.14888367 -0.12192153 0.13510862 0.093434036
0.11094116 0.16195072 -0.16061214 -0.16896309 -0.19011842 -0.047786154 0.07008571 -0.1753069
0.09592841 0.035343256 0.15020384 -0.0858482 -0.15621883 0.049257435 -0.03438525 0.1797538
0.020851173 0.15343608 0.047193956 -0.049186844 0.03749224 0.0070825587 0.05143379 0.06389965
0.06740069 0.18634908 0.073361896 0.09019049 -0.035536107 0.09795344 0.17203034 0.007464632
0.007599025 -0.15189642 -0.015876807 -0.10084551 0.052613735 0.18709405 0.063964576 -0.1076766
00000000: 1a88 6ebd 3d59 e53d 693c 0ebe c8f7 133e
00000010: 7e3b bf3d 704c 143e 5b15 f2bc b916 ee3d
00000020: 6ed8 403e 0aa6 2bbe 0969 62bd 94b3 e13c
00000030: 2c56 313e 1e82 123c 3eae 7ebb b921 2b3c
00000040: 1b3f 8cbc 02a1 28be 059d 703c 69af 24be
00000050: 6325 3e3d 43a1 2abd 3111 34be 92ee ccbd
00000060: 0269 07be 31e6 043e ddb1 1cbd 1521 30be
00000070: 6249 63bd fe29 b83d c0d6 283a cbb6 2bbe
00000080: 5da2 223c 2fc1 37be e62b 273b 0b2f cabd
00000090: 0962 74bd b0a4 a6bd e361 f53d 7b68 0ebe
000000a0: 80d3 023e f437 3e3e 58f4 2c3d 87bc 3e3e
000000b0: 9817 e93d 6c62 443e 6280 093e 7fe4 c8bd
000000c0: ce59 dc3d f0a8 013e e221 8bbd ff75 433e
000000d0: b9d7 943c 5426 89bd 71c7 c5bd 6f27 c93d
000000e0: 07a0 62bd 43a8 29be 3fbb 6e3d cc3c a9bc
000000f0: 3ec7 0fbe 3d3f ae3b 07d7 a8bd 8fde 353d
00000100: 29ef f03d 91d6 db3d 3a2b 843c 125e 1f3d
00000110: 2c89 4c3d 7145 31be 77ea 0f3e c46c 373e
00000120: 7233 3fbe 5779 38be 79bb 11be 1c7c 2dbe
00000130: eaf4 323e cc3c cbbd e6c5 0b3e 88d0 fc3c
00000140: 63d6 123d e4ac bd3c ad0d 583d 036d 38bd
00000150: 2710 3fbe 63dd bdbb 3944 13be 7dcf 833d
00000160: 1d61 ef3b 71ba 033e 24dc 86bd a305 023d
00000170: c9c1 c13d fb89 87bc 7384 43be ef97 eb3d
00000180: 65fb d2bd 1838 c93d 6d20 363d 3eef 45bd
00000190: 6b7d 2a3e 8740 ebbd d51c 30be e587 86bd
000001a0: 8091 00be d0d6 203e 7094 3cbe c268 593d
000001b0: d158 04be 9f23 973d 6875 2dbe 095f 41be
000001c0: 14fb 93bd a29f 01be f29d d03d 4036 0c3a
000001d0: 00aa f23d e13a e33d d865 86bb 85f3 34be
000001e0: 090b 26be b830 14be 3ae6 29bd 8894 0e3e
000001f0: 14d3 2bbe 58c7 9f3a 063e 42bd 428e 86bd
00000200: 9856 2a3c 3e3a aabd 85fe 2cbe 26f3 3a3e
00000210: 6cd8 42be c347 f5bd a797 77bd a15f 0bbe
00000220: f89d 033e 9a6f b73c a9df a2bc 2aef e63d
00000230: 6b27 81bd 91c7 b2bc 7f19 333e 9d4a 20be
00000240: 09d1 6abd 0c3c dc3d fcba f6bd d032 d23d
00000250: 5856 70bd 467c 2ebe 4581 ecbd e793 0c3e
00000260: d11b 433e 6628 d43d 94f9 fdbd 54cb 8ebd
00000270: 3d38 85bd 5f84 d13c d214 78bc 166d ca3c
00000280: 1f59 15bd f974 273e 2b32 ff3d 6da5 babd
00000290: 45c0 943d 530d 35be a60c fbbd 04e2 50bd
000002a0: 2756 f43d 62a9 34be a705 68bd fecd 38be
000002b0: b8b6 d1bd 6740 4c3d b03e 0c3e d459 7e3d
000002c0: 41ac b6bd 65b0 4a3c 0809 1c3e d842 1cbd
000002d0: cc2b cabb bf93 8ebc b07d 10be 28a3 49bd
000002e0: d195 603d be78 dcbd 5eca 0f3e aa99 1ebe
000002f0: 2c27 ed3c e641 99bd e51b 1abe 1204 30bd
00000300: 0ddc 3b3e d968 e13d a7b1 803d 7f8c cb3d
00000310: 6977 c03d a4ad 813c c6b5 1ebc de16 023e
00000320: f53e 3a3e a39f 0fbd b7a1 743d d35a 423e
00000330: 1a86 0fbe d4a4 30be 6163 1a3e d8f2 bd3d
00000340: 9192 f7bd b56a 85bd 8a19 a3bc 0ef1 f1bd
00000350: f674 18be ffb1 f9bd ea59 0a3e 585a bf3d
00000360: 1e35 e33d 69d6 253e 8277 24be a904 2dbe
00000370: 67ae 42be 6abb 43bd 1989 8f3d a783 33be
00000380: 1d76 c43d 17c4 103d 09cf 193e 2ed1 afbd
00000390: d4f7 1fbe 2ac2 493d 8cd7 0cbd 6111 383e
000003a0: 14d0 aa3c 591e 1d3e 734e 413d 2578 49bd
000003b0: 7791 193d cf14 e83b 3dac 523d d2dd 823d
000003c0: 5f09 8a3d 4bd2 3e3e c33e 963d cbb5 b83d
000003d0: 4f8e 11bd d09b c83d b928 303e df99 f43b
000003e0: 3e01 f93b bc8a 1bbe 1410 82bc 1788 cebd
000003f0: 8081 573d 9595 3f3e dcff 823d 8d85 dcbd
